ml/model.tflite (tflite, 148724 bytes, 10 tensors)

dense_1/bias f4 [3]
0.0013127066 -0.0102075655 0.010143699
00000000: 200f ac3a a23d 27bc c231 263c

dense/bias f4 [128]
0.016153516 0.018121863 0.014528879 0.008789492 0.02372145 0.0 -0.0023885542 0.006840026
0.0 -0.013418195 -0.0011127853 0.0 0.006613247 -0.004937781 0.013869503 0.012893023
0.010181678 -0.013918245 0.011525128 0.0025867696 -0.014706784 0.01684048 -0.0074088415 -0.013080091
-0.0030587623 0.0 -0.017727818 -0.011143637 0.010797752 0.021620797 -0.00051441835 -0.006977145
0.014929207 0.01283639 -0.01760289 0.0 0.002659216 0.0 0.014524856 -0.012759307
-0.006269543 0.00347856 0.0 -0.011770625 0.01606951 0.00071707816 0.00977166 0.0
0.021507435 0.003449453 -0.0022024713 0.031466678 -0.008173277 -0.005995669 0.01820122 0.0022361444
0.0 -0.010140572 -0.012373553 -0.0065854928 0.0010938917 0.0 0.017434867 -0.007506493
0.004293031 0.025477398 0.0 0.00073805836 0.0049634147 -0.005228415 -0.009265784 -0.008987208
0.013291009 0.009269735 0.012034171 0.013812603 0.003344216 0.006378775 0.011644868 0.009872811
0.010726629 0.030870667 -0.0038443722 0.008941327 -0.00972239 -0.013602085 0.0033493177 -0.0090694595
-0.0011933905 -0.000816312 0.013873843 -0.0060166554 -0.0108516645 -0.0075337687 0.0 0.0042542494
-0.0053836145 -0.0038739466 0.009647511 -0.0059572095 -0.0022157636 -0.002153573 0.01803151 -0.0045552617
0.0071342997 0.005236372 0.026255786 0.0 0.0 0.014156933 0.0068839826 0.0005556448
-0.007968448 0.004316729 -0.0051139714 -0.009259478 0.023395624 0.02001345 -0.012725107 0.008286914
-0.010517647 0.0 0.0 0.017872645 -0.00884679 -0.008939871 0.014303584 -0.017603252
00000000: 6154 843c 4d74 943c 890a 6e3c cd01 103c
00000010: 7c53 c23c 0000 0000 4a89 1cbb 4c22 e03b
00000020: 0000 0000 fdd7 5bbc e1da 91ba 0000 0000
00000030: f0b3 d83b 1ccd a1bb e93c 633c 423d 533c
00000040: 0ed1 263c 5a09 64bc e4d3 3c3c cb86 293b
00000050: b9f4 70bc 0cf5 893c dec5 f2bb e14d 56bc
00000060: 8475 48bb 0000 0000 ee39 91bc cd93 36bc
00000070: 0ee9 303c 191e b13c 08da 06ba 89a0 e4bb
00000080: a299 743c b94f 523c f033 90bc 0000 0000
00000090: 3e46 2e3b 0000 0000 a9f9 6d3c 6a0c 51bc
000000a0: bd70 cdbb 8df8 633b 0000 0000 94d9 40bc
000000b0: 34a4 833c 4dfa 3b3a 5019 203c 0000 0000
000000c0: 5c30 b03c 3810 623b 5657 10bb 34e3 003d
000000d0: 35e9 05bc 5177 c4bb ba1a 953c 478c 123b
000000e0: 0000 0000 a424 26bc 71ba 4abc 1ecb d7bb
000000f0: ea60 8f3a 0000 0000 91d3 8e3c 07f9 f5bb
00000100: 8eac 8c3b fab5 d03c 0000 0000 427a 413a
00000110: 24a4 a23b 2053 abbb 84cf 17bc 153f 13bc
00000120: 88c2 593c 16e0 173c f92a 453c 424e 623c
00000130: a22a 5b3b 0b05 d13b 1eca 3e3c 92c1 213c
00000140: bebe 2f3c 7be4 fc3c ddf1 7bbb a57e 123c
00000150: a94a 1fbc 48db 5ebc 3a80 5b3b 1298 14bc
00000160: 8a6b 9cba c5fd 55ba 1d4f 633c 5d27 c5bb
00000170: 2ecb 31bc d5dd f6bb 0000 0000 3b67 8b3b
00000180: 0869 b0bb 0ae2 7dbb 9810 1e3c b234 c3bb
00000190: 5836 11bb f622 0dbb d1b6 933c 4e44 95bb
000001a0: d8c6 e93b df95 ab3b 6016 d73c 0000 0000
000001b0: 0000 0000 7bf2 673c 0893 e13b b1a8 113a
000001c0: 188e 02bc 5973 8d3b 1a93 a7bb 11b5 17bc
000001d0: 2ea8 bf3c 3ff3 a33c f87c 50bc d6c5 073c
000001e0: 3552 2cbc 0000 0000 0000 0000 a769 923c
000001f0: 20f2 10bc 8978 12bc 9459 6a3c b234 90bc

conv2d_2/bias f4 [32]
0.020034263 -0.012346594 -0.009088156 -0.010775814 -0.006405425 0.027395 0.022935288 0.030209156
-0.0024614702 0.016739838 -0.019513555 -0.01718604 0.0 -0.006256784 0.0031469485 -0.012985253
0.014347331 0.029144442 0.0 0.016681077 -0.006313473 0.023878697 -0.0019166099 -0.007016538
0.014085098 0.002138892 -0.0122830765 0.016680188 0.017029533 -0.010319717 0.0012646451 0.03152568
00000000: e51e a43c 5e49 4abc 7de6 14bc 0a8d 30bc
00000010: 99e4 d1bb 7b6b e03c c9e2 bb3c 3179 f73c
00000020: 9e50 21bb fc21 893c e4da 9fbc bdc9 8cbc
00000030: 0000 0000 b505 cdbb 093d 4e3b 19c0 54bc
00000040: 1111 6b3c 53c0 ee3c 0000 0000 c1a6 883c
00000050: 40e1 cebb 429d c33c c236 fbba fdea e5bb
00000060: 2fc5 663c a72c 0c3b f53e 49bc e4a4 883c
00000070: 8581 8b3c 0814 29bc 73c2 a53a 1221 013d

conv2d_1/bias f4 [32]
0.019665774 -0.0063875956 0.032937206 0.0 0.025910707 0.023291433 -0.0035056022 -0.005086261
0.0 0.009544517 0.0 0.018487636 -0.009883511 -0.007251425 -0.006050527 -0.008314888
-2.9881854e-05 -0.0095019955 -0.010743303 -0.004354922 -0.009559188 -0.0044730064 -0.028598692 -0.014599543
0.0035399846 -0.032722767 0.008323876 -0.006000607 0.004508504 -0.005989031 -0.008827489 0.02662405
00000000: 1e1a a13c 094f d1bb 2ae9 063d 0000 0000
00000010: b142 d43c adcd be3c 3fbe 65bb a6aa a6bb
00000020: 0000 0000 9b60 1c3c 0000 0000 6273 973c
00000030: 73ee 21bc 5d9d edbb 8043 c6bb 2b3b 08bc
00000040: cbaa fab7 42ae 1bbc ae04 30bc bcb3 8ebb
00000050: 249e 1cbc 4c92 92bb ce47 eabc ec32 6fbc
00000060: 16ff 673b 4f08 06bd de60 083c bda0 c4bb
00000070: 13bc 933b a23f c4bb 2ca1 10bc ae1a da3c

conv2d/bias f4 [32]
0.0 -0.0065075355 0.018497866 -0.03878597 -0.00802278 -0.009219123 0.02328158 -0.0030977468
-0.045155603 -0.0034366006 0.017043376 -0.00824928 0.01792332 0.0 0.026285555 -0.016818356
0.028758164 0.03760835 -0.01602712 -0.010035108 -0.009502352 0.0113527365 -0.03502721 -0.012813727
0.032074608 0.041487146 0.0038390104 -0.00278107 -0.034301564 -0.024754388 -0.014658103 0.014806473
00000000: 0000 0000 2a3d d5bb d688 973c 0ade 1ebd
00000010: fa71 03bc ce0b 17bc 03b9 be3c 9103 4bbb
00000020: 15f5 38bd 9738 61bb 8d9e 8b3c fd27 07bc
00000030: edd3 923c 0000 0000 ce54 d73c a6c6 89bc
00000040: 3e96 eb3c 370b 1a3d 4f4b 83bc 4b6a 24bc
00000050: c1af 1bbc d400 3a3c b178 0fbd abf0 51bc
00000060: aa60 033d 6dee 293d e897 7b3b 9d42 36bb
00000070: cc7f 0cbd b7c9 cabc 8a28 70bc d996 723c

sequential/dense/MatMul f4 [128, 128]
0.027764693 0.02632331 -0.12907039 -0.042806648 -0.10584819 0.13777274 0.16775514 0.10356383
0.02899167 -0.019153284 0.1461465 0.14613095 -0.118925825 -0.08516726 -0.10361782 0.056265056
-0.0599064 -0.031719077 -0.13173062 0.17060569 -0.07009901 -0.08035468 -0.11235772 0.12819344
0.080591165 -0.0016766649 0.004169643 -0.059144236 -0.050717704 -0.1432567 0.120107956 -0.0052896
0.1880603 0.08568922 0.16388007 0.07587658 -0.011086476 0.14335229 -0.019502945 0.11951599
-0.11655294 -0.03269988 0.105698206 0.025415678 -0.014795154 -0.06358558 0.110921085 -0.11105359
0.096806824 -0.013879626 0.05274427 0.05382108 0.13883245 -0.026746964 -0.056182947 -0.100077726
0.12811865 -0.026914047 -0.04533717 -0.031488698 -0.036979068 0.020631 -0.11573265 0.043165002
0.1328172 0.013059747 -0.14209138 -0.038524695 0.11847068 -0.09566388 0.07894986 -0.055371795
-0.14106643 0.020835582 0.11135362 0.039863195 0.009363413 -0.07771593 0.13486005 -0.030791536
-0.13337708 -0.12243562 0.062428877 0.023504656 0.06927468 0.04038754 0.11598044 0.041665986
-0.11119845 -0.17436413 -0.14029866 -0.036165897 -0.054381844 0.0030063677 -0.08824101 0.01122542
0.16440177 -0.09499163 0.14569882 0.08133653 -0.10764228 -0.04900361 -0.08910313 0.06475224
0.041447278 0.05351705 -0.068362534 -0.14867765 0.03502275 -0.025595278 0.060941327 -0.112102024
-0.14365509 0.14811963 -0.01071319 -0.1131417 -0.017977765 -0.018363768 -0.09183776 -0.10522125
0.1763672 0.12674144 -0.13485321 -0.045320615 0.08547652 -0.039722227 0.1456105 -0.027504921
-0.055547886 -0.020584965 -0.012471087 -0.013609186 -0.08149442 0.16183874 -0.06331941 0.10466977
0.120568946 0.16845952 -0.06361893 0.03413142 0.12142821 0.036042705 -0.039667208 -0.047545195
0.0156247895 0.07951318 -0.08281325 -0.09268581 -0.13507998 -0.009867694 -0.13602576 -0.09746144
0.1026933 0.013876052 -0.005366519 0.102538265 -0.05344972 -0.010977671 -0.12010928 -0.0013143214
0.05828906 0.12940192 0.16128148 0.12910233 0.05755539 0.039679125 0.09810021 0.00880161
0.034545332 -0.047487915 -0.1038153 -0.07127227 0.0029886365 0.07359803 0.0016241263 0.0068181385
-0.015387625 -0.009883915 0.032766968 0.09205079 -0.07384915 0.20295699 -0.08069207 0.03946868
0.08689057 -0.054318566 -0.0139247775 -0.050296236 0.16455868 0.1465161 0.09866914 -0.0032304977
0.109153986 0.16278102 0.12864736 0.1224228 -0.022984823 0.032711197 0.12737449 0.12976362
-0.09498816 0.054046005 -0.10625635 0.009095295 -0.098090574 0.002491949 0.03914062 -0.12356312
-0.040680785 0.13135882 0.015284836 -0.028917965 0.07140898 0.104121655 -0.06894872 -0.080568835
0.027370635 -0.0110921385 0.079239875 0.107308455 0.07753806 0.05431342 0.10658821 0.09712328
-0.052108433 0.015132206 0.16408156 -0.06506862 -0.02274381 -0.09474615 0.01930893 0.06543486
0.11874583 -0.098602906 -0.096648455 0.01693423 0.08205305 -0.14513412 -0.013142741 0.07486468
0.024821961 -0.020903904 0.026995182 -0.086900786 0.07626975 -0.015201859 0.03193593 -0.112191916
-0.029757094 -0.046748612 0.14550315 0.14419709 -0.03433613 0.06877363 0.03843479 -0.040254254
00000000: c872 e33c fba3 d73c 072b 04be 0656 2fbd
00000010: f0c6 d8bd 4c14 0d3e 01c8 2b3e 4619 d43d
00000020: f07f ed3c 59e7 9cbc 6ea7 153e 5aa3 153e
00000030: 628f f3bd 2c6c aebd 9435 d4bd 3076 663d
00000040: 6a60 75bd ddeb 01bd 64e4 06be 42b3 2e3e
00000050: 1290 8fbd ff90 a4bd ce1b e6bd 2445 033e
00000060: fb0c a53d 8ac3 dbba 80a1 883b 3a41 72bd
00000070: 5ebd 4fbd e2b1 12be 29fb f53d 6254 adbb
00000080: e192 403e d47d af3d 2dd0 273e 2e65 9b3d
00000090: 0da4 35bc f1ca 123e a4c4 9fbc cdc4 f43d
000000a0: 4fb3 eebd 4ff0 05bd 4d78 d83d 8a34 d03c
000000b0: 6067 72bc 2839 82bd 982a e33d 1170 e3bd
000000c0: a842 c63d 5f67 63bc 600a 583d 7e73 5c3d
000000d0: 182a 0e3e 731c dbbc 1720 66bd 8df5 ccbd
000000e0: 8931 033e d97a dcbc 78b3 39bd 4bfa 00bd
000000f0: 5d77 17bd 5802 a93c 3d05 edbd c9cd 303d
00000100: 3b01 083e 8df8 553c 6780 11be 12cc 1dbd
00000110: c2a0 f23d 6deb c3bd 77b0 a13d 89cd 62bd
00000120: b873 10be 62af aa3c 5e0d e43d 9747 233d
00000130: 0069 193c 8829 9fbd c118 0a3e 883e fcbc
00000140: 0094 08be 87bf fabd 6cb5 7f3d d68c c03c
00000150: e2df 8d3d 686d 253d 2787 ed3d f4a9 2a3d
00000160: 03bc e3bd 838c 32be 74aa 0fbe b122 14bd
00000170: 7fbf 5ebd 7b06 453b b4b7 b4bd d3ea 373c
00000180: f058 283e f98a c2bd 1232 153e c493 a63d
00000190: 8e73 dcbd 02b8 48bd b47b b6bd d39c 843d
000001a0: 9fc4 293d b234 5b3d a801 8cbd f43e 18be
000001b0: 0474 0f3d 30ad d1bc 9d9d 793d bf95 e5bd
000001c0: 521a 13be acac 173e 6086 2fbc d6b6 e7bd
000001d0: 1b46 93bc 9d6f 96bc 6f15 bcbd 3d7e d7bd
000001e0: 9a99 343e 82c8 013e f616 0abe 1ca2 39bd
000001f0: 500e af3d c6b3 22bd eb1a 153e 0052 e1bc
00000200: 2e86 63bd cda1 a8bc 8853 4cbc 10f9 5ebc
00000210: 8ce6 a6bd 0eb9 253e 9bad 81bd 1b5d d63d
00000220: daec f63d a780 2c3e a44a 82bd 63cd 0b3d
00000230: 5aaf f83d 84a1 133d 157a 22bd c0be 42bd
00000240: 1eff 7f3c ced7 a23d fe99 a9bd 0fd2 bdbd
00000250: 6852 0abe 1cac 21bc 564a 0bbe dd99 c7bd
00000260: dd50 d23d 6158 633c a0d9 afbb 95ff d13d
00000270: 18ee 5abd b0db 33bc dbfb f5bd 4f45 acba
00000280: 82c0 6e3d f081 043e f926 253e 6733 043e
00000290: 33bf 6b3d 9486 223d c3e8 c83d a134 103c
000002a0: 687f 0d3d b082 42bd 1e9d d4bd 32f7 91bd
000002b0: 00dd 433b 90ba 963d a3e0 d43a b16a df3b
000002c0: 611c 7cbc 25f0 21bc a836 063d 2085 bc3d
000002d0: 393e 97bd f5d3 4f3e e241 a5bd e9a9 213d
000002e0: aff3 b13d 257d 5ebd c024 64bc 6d03 4ebd
000002f0: 1282 283e 5108 163e 0c13 ca3d c2b6 53bb
00000300: 208c df3d 11b0 263e 22bc 033e ceb8 fa3d
00000310: ab4a bcbc 2dfc 053d 756e 023e c1e0 043e
00000320: 2789 c2bd 585f 5d3d ee9c d9bd 6f04 153c
00000330: b6e3 c8bd f74f 233b ea51 203d a90e fdbd
00000340: e5a0 26bd ed82 063e 406d 7a3c 5ee5 ecbc
00000350: df3e 923d bc3d d53d fd34 8dbd 4601 a5bd
00000360: 6238 e03c cdbb 35bc 8448 a23d 89c4 db3d
00000370: 46cc 9e3d c077 5e3d eb4a da3d 92e8 c63d
00000380: a76f 55bd 12ed 773c ff04 283e b242 85bd
00000390: 3a51 babc 450a c2bd c32d 9e3c b602 863d
000003a0: 0431 f33d 52f0 c9bd a0ef c5bd a8b9 8a3c
000003b0: 6e0b a83d 0a9e 14be a754 57bc a752 993d
000003c0: 6d57 cb3c aa3e abbc 0025 dd3c 0af9 b1bd
000003d0: 5133 9c3d 3811 79bc 40cf 023d e0c4 e5bd
000003e0: 26c5 f3bc 797b 3fbd c7fe 143e 67a8 133e
000003f0: 0ba4 0cbd 30d9 8c3d cc6d 1d3d a5e1 24bd

sequential/dense_1/MatMul f4 [3, 128]
0.07487331 0.0025460976 -0.12959747 -0.18865362 0.21178438 0.08722128 0.070586585 -0.20485961
-0.18201208 0.0069172443 -0.0074297674 0.035421923 0.17466016 -0.047753762 0.16111144 0.05840382
-0.068175085 -0.1317869 0.22066765 0.17350627 -0.1242303 -0.04678843 0.050054274 0.020801658
0.22014308 0.027742773 0.054184534 -0.04036507 0.19890036 0.2093642 0.025066458 -0.11706661
-0.10867043 0.23234363 0.025211433 0.1329958 -0.13498308 -0.178012 0.0789573 0.062176164
-0.070576146 -0.21716446 0.06754716 0.17319389 -0.073533945 0.20209667 0.113049865 -0.13215905
-0.003953134 0.18210709 -0.17687963 0.04001445 0.12397081 -0.15615705 0.24843508 -0.025306582
-0.05823545 0.12269297 -0.10499734 -0.050515346 -0.06663316 0.11702825 -0.0062277056 0.09964209
-0.0033580095 -0.18278807 0.21333061 -0.09743143 -0.07834494 -0.11056644 0.0367646 -0.030199664
0.20039041 0.18958923 0.140447 0.0963767 0.037646428 0.15925275 -0.1580131 0.14892015
-0.0791116 -0.08853232 -0.19709948 -0.28615716 -0.067566745 0.14719655 -0.23661101 -0.1472232
0.15313932 -0.105861604 0.18535633 0.07734073 0.076946005 -0.08271305 -0.15356344 0.04722085
-0.041847546 -0.23419267 0.09708522 -0.12035035 0.21913119 -0.18035601 -0.20946138 0.24205674
-0.036316846 0.009998069 -0.015143097 -0.18190227 0.113531545 0.04358718 -0.13204795 0.021666277
0.12954749 0.13637023 -0.060820088 0.19418938 0.025424154 0.037737332 -0.19804999 0.06858443
0.037602395 0.06689073 0.16591568 0.0603513 -0.12999971 0.042838518 -0.13957119 -0.16522463
-0.06140689 -0.20450291 -0.17490882 -0.060483787 -0.037350863 -0.026216269 0.24503902 0.15297794
0.21336745 0.13657269 0.104476094 -0.12650262 -0.15966888 0.11533962 0.006795404 -0.18891807
-0.09187798 -0.092898555 -0.0049612173 -0.14301535 0.012933594 -0.05219345 -0.08916418 0.11453461
0.13317822 -0.021131605 0.050252203 0.112044245 -0.14605598 -0.2667827 -0.13387135 -0.14791156
-0.2005355 -0.18747956 -0.022620056 0.19219185 0.1215197 -0.17297623 0.22926296 0.0698271
0.021584889 0.21901117 0.17568476 -0.17348196 -0.04752844 -0.031114453 0.005995 -0.18576536
0.0053737843 0.13779436 0.06457572 -0.26333883 0.027935838 -0.029438257 -0.024228958 -0.12958427
0.09339355 0.13461497 0.1249807 0.16624561 -0.16697803 -0.16185999 -0.20791051 -0.117820434
0.15857577 0.037121765 -0.06956844 0.1272675 -0.08686006 -0.15266955 -0.09625259 0.13778281
0.016205635 0.17579187 -0.18202913 0.026960174 -0.122414134 -0.1293742 -0.002420852 0.25228158
-0.14221713 -0.017005064 -0.12420179 0.14901583 0.017536324 -0.11958437 0.10186492 0.075792916
-0.14479104 0.14715974 -0.14067237 0.2442739 0.07900979 -0.09141303 -0.070936516 0.19036886
0.19491184 0.098206975 0.1789791 -0.19147544 0.061731078 0.13104184 0.123093024 0.069314
-0.24248429 -0.19384144 -0.18434003 0.053562865 -0.14547119 -0.20052545 0.2239077 -0.21763112
0.021194879 -0.091869235 -0.20483513 -0.020671688 -0.15651892 -0.092719845 -0.18698147 -0.14010793
-0.015804738 -0.0015141517 -0.102983005 0.019635942 -0.11074866 -0.1344008 -0.11376988 0.13029625
00000000: 2e57 993d 6edc 263b 33b5 04be 6a2e 41be
00000010: 01de 583e 12a1 b23d b38f 903d b8c6 51be
00000020: 6061 3abe 0daa e23b 6875 f3bb 9416 113d
00000030: 1dda 323e 7399 43bd 66fa 243e d838 6f3d
00000040: 619f 8bbd 25f3 06be b3f6 613e a1ab 313e
00000050: 756c febd 3aa5 3fbd b605 4d3d 3d68 aa3c
00000060: 306d 613e d044 e33c 9af0 5d3d d855 25bd
00000070: 89ac 4b3e 9263 563e 2c58 cd3c 9ec0 efbd
00000080: 9a8e debd 7deb 6d3e 3588 ce3c 0d30 083e
00000090: 0139 0abe c748 36be 5db4 a13d 6fac 7e3d
000000a0: 3a8a 90bd 5c60 5ebe 2a56 8a3d bd59 313e
000000b0: f798 96bd 6ef2 4e3e b086 e73d b454 07be
000000c0: 4b89 81bb 487a 3a3e ef1f 35be 31e6 233d
000000d0: 68e4 fd3d a2e7 1fbe c465 7e3e c04f cfbc
000000e0: 4c88 6ebd 7446 fb3d d808 d7bd 2ee9 4ebd
000000f0: f776 88bd 82ac ef3d c811 ccbb 2711 cc3d
00000100: 0d12 5cbb cc2c 3bbe 5773 5a3e 218a c7bd
00000110: 5073 a0bd a870 e2bd 7a96 163d 4965 f7bc
00000120: 2533 4d3e ae23 423e 57d1 0f3e 2661 c53d
00000130: 2433 1a3d 2713 233e 30ce 21be 867e 183e
00000140: 4305 a2bd 6f50 b5bd 72d4 49be 3183 92be
00000150: 6f60 8abd b1ba 163e 284a 72be aec1 16be
00000160: 8ed0 1c3e f8cd d8bd 0dce 3d3e d164 9e3d
00000170: de95 9d3d 7665 a9bd bc3f 1dbe a66a 413d
00000180: 5568 2bbd 34d0 6fbe 9ed4 c63d 3f7a f6bd
00000190: ed63 603e 3faf 38be 0b7d 56be b9dd 773e
000001a0: f9c0 14bd f1ce 233c c11a 78bc 9744 3abe
000001b0: 3a83 e83d 7988 323d 9437 07be 7a7d b13c
000001c0: 19a8 043e a3a4 0b3e 7c1e 79bd 95d9 463e
000001d0: 5146 d03c 7692 1a3d 9ecd 4abe fe75 8c3d
000001e0: f804 1a3d 02fe 883d cde5 293e ed32 773d
000001f0: a51e 05be 7177 2f3d c0eb 0ebe a530 29be
00000200: cb85 7bbd 3669 51be 4c1b 33be d9bd 77bd
00000210: 38fd 18bd 80c3 d6bc 82eb 7a3e 40a6 1c3e
00000220: ff7c 5a3e b6d9 0b3e 90f7 d53d e789 01be
00000230: 3d80 23be 2e37 ec3d fbab de3b bd73 41be
00000240: 862a bcbd 9941 bebd b591 a2bb 9e72 12be
00000250: 6de7 533c cdc8 55bd b69b b6bd 1f91 ea3d
00000260: df5f 083e 301c adbc 41d5 4d3d 7477 e53d
00000270: b38f 15be be97 88be 9215 09be 2176 17be
00000280: 2e59 4dbe a4fa 3fbe b24d b9bc f1cd 443e
00000290: 52df f83d ae20 31be e9c3 6a3e 8301 8f3d
000002a0: cbd2 b03c 7744 603e b5e6 333e 41a5 31be
000002b0: 2ead 42bd bde3 febc b471 c43b 4639 3ebe
000002c0: 9216 b03b f719 0d3e 4640 843d 59d4 86be
000002d0: b3d9 e43c 8028 f1bc cf7b c6bc bdb1 04be
000002e0: 1e45 bf3d 82d8 093e e2f5 ff3d 4a3c 2a3e
000002f0: 4afc 2abe a0be 25be 7ee6 54be d74b f1bd
00000300: b061 223e fe0c 183d e679 8ebd 6952 023e
00000310: b0e3 b1bd 6855 1cbe 1420 c5bd f016 0d3e
00000320: aec1 843c c902 343e d865 3abe 95db dc3c
00000330: 43b4 fabd ac7a 04be 28a7 1ebb 0d2b 813e
00000340: 5ea1 11be 344e 8bbc 825d febd 9b97 183e
00000350: 56a8 8f3c a6e8 f4bd 8e9e d03d 5139 9b3d
00000360: 1a44 14be 0bb1 163e 6b0c 10be f022 7a3e
00000370: e3cf a13d c136 bbbd 2a47 91bd 0ef0 423e
00000380: f896 473e bd20 c93d 4c46 373e 2312 44be
00000390: bad9 7c3d d52f 063e 3218 fc3d 80f4 8d3d
000003a0: cd4d 78be 5f7e 46be a2c3 3cbe bc64 5b3d
000003b0: 66f6 14be 8b56 4dbe 0f48 653e b1da 5ebe
000003c0: e2a0 ad3c f025 bcbd 4dc0 51be ac57 a9bc
000003d0: 7f46 20be e7e3 bdbd 1278 3fbe 7478 0fbe
000003e0: f078 81bc 8076 c6ba c1e8 d2bd 8edb a03c
000003f0: 32d0 e2bd 5da0 09be 2f00 e9bd 616c 053e

sequential/conv2d_1/Conv2D f4 [32, 3, 3, 32]
0.036713094 0.05452129 -0.11831331 0.024840781 -0.01834806 -0.036691707 0.013713878 -0.06069605
0.08281482 0.09402627 -0.01662939 0.08831944 0.038823593 -0.06797978 0.046470635 -0.10893997
0.1348318 0.05372592 -0.060143147 0.048532173 0.042808346 -0.012756928 -0.0569016 0.09196564
0.06194259 0.17014869 0.05374044 0.021253547 0.06917946 -0.04793685 0.08018315 -0.058848817
-0.075819865 -0.06772105 0.041937478 0.038266756 -0.018221853 0.047229633 -0.057994757 -0.071476854
-0.022053277 -0.07556909 0.058501054 -0.006233197 -0.011765899 0.060451537 0.12964717 -0.08987861
0.020879837 -0.024811415 0.008188809 0.09325877 -0.10226737 0.026936227 -0.054348238 -0.082593724
-0.031919394 0.031647522 -0.038392037 -0.0023848664 0.044833496 -0.10633195 0.1129979 0.014333977
0.008932628 -0.06794247 -0.01719764 0.076802224 -0.073171586 0.068840384 0.107558735 -0.086944334
-0.10230275 -0.02040147 -0.026357742 -0.011452706 -0.0042547025 -0.05663283 -0.08926787 0.034558102
0.030132769 -0.023648815 -0.024701709 0.07459612 -0.088879034 -0.06816843 -0.08795225 -0.08008311
-0.01195579 0.046850387 -0.046139523 0.057594053 0.0010442412 -0.11561763 -0.08007032 0.008104694
-0.04325016 0.04602964 -0.03320323 0.009332011 0.009639609 -0.005838784 -0.07033914 -0.08174735
0.026569383 0.027840571 0.107268944 -0.06574104 0.1153626 0.09951106 0.039509047 -0.09908806
0.069338456 0.016957117 -0.08081044 -0.057289608 0.09991438 0.029049579 0.09007096 -0.08519572
0.03391601 0.038204014 0.09766926 -0.03252417 -0.055687185 0.1205995 0.043336887 0.07462886
-0.0096089095 0.0706942 0.045045275 -0.05173356 0.022910539 -0.121199444 -0.056603298 -0.09684996
0.09183737 -0.028616888 0.08922547 -0.03676957 -0.016088165 0.058682635 -0.0025974226 0.052499298
0.13277782 -0.06818769 0.044082787 0.054256972 -0.058300443 0.06726204 0.09170846 0.07998064
0.001634773 0.000807127 -0.0129919415 -0.032252103 0.090403646 0.05880712 0.0962565 -0.11839832
-0.0023554116 -0.09951398 -0.07932134 0.07607288 0.021984044 0.010742643 -0.02619743 0.06870103
0.06975219 0.044329952 -0.08437472 -0.0374217 0.047745638 -0.030158594 0.0051445705 0.04783457
0.0994304 -0.03278402 0.047151845 0.039251585 -0.0783224 -0.092518955 -0.08765793 -0.078577556
-0.030877702 0.12997957 0.013058703 -0.08986497 0.049716156 -0.03906718 0.053609252 0.0043319734
-0.03577985 -0.01089735 -0.02539641 0.08698596 -0.09797556 0.068407014 0.056323927 0.08627565
-0.01372141 0.00825908 0.06780771 0.087249115 0.068287805 0.069169715 0.0021353816 -0.09508334
0.0011037514 0.08082955 -0.047874358 -0.07710532 0.10615165 0.026317077 0.05135917 -0.014440904
0.024940263 0.010168654 0.008178864 0.093394205 0.08110831 -0.057412066 0.04008057 0.049121227
-0.008513004 -0.0021542863 0.00525701 0.07116695 0.082509816 0.033670895 0.049830444 -0.076956555
-0.07604013 -0.07620152 -0.025098477 0.05939005 0.04065924 -0.015457076 -0.025741 0.008184845
0.11768527 -0.03949924 0.019202787 0.09539013 0.09053149 -0.08221338 0.09576918 0.05829195
-0.04897121 0.061436404 -0.019482914 -0.018134244 0.009605878 0.10841625 0.11388753 -0.1028942
00000000: 7860 163d b751 5f3d 404e f2bd e57e cb3c
00000010: ac4e 96bc 0b4a 16bd 2cb0 603c 6c9c 78bd
00000020: d19a a93d d890 c03d 5c3a 88bc d3e0 b43d
00000030: 7d05 1f3d fc38 8bbd fe57 3e3d eb1b dfbd
00000040: 5911 0a3e b60f 5c3d a958 76bd acc9 463d
00000050: ce57 2f3d 6f02 51bc a711 69bd 7b58 bc3d
00000060: 83b7 7d3d 753b 2e3e f01e 5c3d eb1b ae3c
00000070: f6ad 8d3d 6e59 44bd 1037 a43d 750b 71bd
00000080: 7247 9bbd 55b1 8abd a2c6 2b3d 9abd 1c3d
00000090: ff45 95bc dc73 413d e98b 6dbd 7562 92bd
000000a0: 13a9 b4bc f8c3 9abd cd9e 6f3d d93f ccbb
000000b0: c2c5 40bc 089c 773d 3ac2 043e 4712 b8bd
000000c0: 310c ab3c 4f41 cbbc 5b2a 063c 74fe be3d
000000d0: 8e71 d1bd 5da9 dc3c 429c 5ebd e626 a9bd
000000e0: e9bd 02bd d5a0 013d f840 1dbd 6b4b 1cbb
000000f0: 54a3 373d 91c4 d9bd 716b e73d 0fd9 6a3c
00000100: 285a 123c 6c25 8bbd 11e2 8cbc 7c4a 9d3d
00000110: fcda 95bd 30fc 8c3d c147 dc3d df0f b2bd
00000120: 1b84 d1bd fc20 a7bc 31ec d7bc 21a4 3bbc
00000130: 086b 8bbb d4f7 67bd 13d2 b6bd cc8c 0d3d
00000140: ffd8 f63c 29bb c1bc 3d5b cabc dac5 983d
00000150: 3606 b6bd e49b 8bbd 4f20 b4bd 9d02 a4bd
00000160: 38e2 43bc 31e6 3f3d ccfc 3cbd bee7 6b3d
00000170: ecde 883a f0c8 ecbd e8fb a3bd 8dc9 043c
00000180: 1427 31bd 9389 3c3d 1c00 08bd 4be5 183c
00000190: 73ef 1d3c 4553 bfbb f80d 90bd 286b a7bd
000001a0: 09a8 d93c e911 e43c d2af db3d 3da3 86bd
000001b0: 3a43 ec3d 74cc cb3d 3dd4 213d aeee cabd
000001c0: 5201 8e3d a7e9 8a3c f27f a5bd 82a8 6abd
000001d0: e99f cc3d 62f9 ed3c 2077 b83d 187b aebd
000001e0: 84eb 0a3d d07b 1c3d d206 c83d 1038 05bd
000001f0: 3f18 64bd dffc f63d 0582 313d 04d7 983d
00000200: b06e 1dbc 1fc8 903d 6581 383d 92e6 53bd
00000210: e2ae bb3c 6a37 f8bd dcd8 67bd 4659 c6bd
00000220: 3b15 bc3d f76d eabc d8bb b63d b09b 16bd
00000230: 54cb 83bc 345d 703d 8539 2abb 8109 573d
00000240: e9f6 073e fda5 8bbd 2790 343d 8f3c 5e3d
00000250: 72cc 6ebd aec0 893d a5d1 bb3d e4cc a33d
00000260: e145 d63a 6095 533a 27dc 54bc c81a 04bd
00000270: 8c25 b93d bcdf 703d 2122 c53d d27a f2bd
00000280: 405d 1abb fccd cbbd 3a73 a2bd 19cc 9b3d
00000290: e217 b43c e901 303c fe9b d6bc 20b3 8c3d
000002a0: 3cda 8e3d 5393 353d a7cc acbd 7f47 19bd
000002b0: ee90 433d 280f f7bc c993 a83b 2fee 433d
000002c0: 2aa2 cb3d 8948 06bd 4b22 413d 45c6 203d
000002d0: 7f67 a0bd 947a bdbd 0086 b3bd 45ed a0bd
000002e0: 3cf3 fcbc 5d19 053e 2cf4 553c 200b b8bd
000002f0: 2ba3 4b3d e804 20bd 6095 5b3d 3af3 8d3b
00000300: e48d 12bd cc8a 32bc 220c d0bc b225 b23d
00000310: 69a7 c8bd fa18 8c3d ebb3 663d 4ab1 b03d
00000320: c4cf 60bc 1851 073c c5de 8a3d aaaf b23d
00000330: 7ada 8b3d daa8 8d3d c2f1 0b3b 0ebb c2bd
00000340: c0ab 903a f789 a53d e717 44bd 65e9 9dbd
00000350: 0966 d93d e996 d73c fe5d 523d 8b99 6cbc
00000360: 864f cc3c 6d9a 263c a400 063c 7645 bf3d
00000370: 1d1c a63d ea28 6bbd 862b 243d 5733 493d
00000380: 207a 0bbc ed2e 0dbb ff42 ac3b fabf 913d
00000390: e8fa a83d 7eea 093d 021b 4c3d 669b 9dbd
000003a0: edba 9bbd 8b0f 9cbd 529b cdbc fb42 733d
000003b0: 4e8a 263d ad3f 7dbc cade d2bc ba19 063c
000003c0: fa04 f13d f5c9 21bd 2a4f 9d3c e75b c33d
000003d0: 9368 b93d 7d5f a8bd a222 c43d 8ac3 6e3d
000003e0: 0996 48bd bda4 7b3d a29a 9fbc 448e 94bc
000003f0: f961 1d3c 5709 de3d de3d e93d 32ba d2bd

sequential/conv2d_2/Conv2D f4 [32, 3, 3, 32]
-0.080256894 -0.063961074 -0.015549126 0.07487093 0.034949504 0.06558758 0.05031668 -0.0816024
0.0871945 -0.07945319 0.05377464 -0.051870685 0.055240765 0.051555242 -0.08750578 -0.073784195
0.080056295 0.05908054 0.08545414 -0.0041308226 0.052286178 -0.078822955 0.085289605 0.065538526
0.09388539 -7.283204e-05 -0.02374541 -0.022947239 0.017625934 0.023755893 -0.00073680864 -0.020241907
-0.10285723 -0.08175139 0.003550284 0.07168658 0.018346531 0.15122789 0.11901845 -0.041321803
-0.07006978 -0.052445725 -0.017062984 0.10415114 0.094403096 -0.02049242 0.01939716 -0.066928096
-0.065208346 0.0549068 0.10253588 -0.04176258 -0.015530199 -0.080627486 0.10168729 0.053493977
0.12263548 0.0076175844 0.10106667 -0.008714638 0.02612325 0.016635038 -0.075773865 -0.066014364
-0.102402836 0.013996128 0.006820924 0.035102993 0.07086155 0.10145007 -0.0061151558 0.07988918
0.0152242035 0.024179757 0.036173224 0.082642086 -0.037617654 0.105505124 -0.074914396 -0.0016078618
0.036216393 0.05460544 -0.05844055 -0.041932255 0.036843237 0.07476732 0.097154185 0.07032579
0.013034769 0.1065775 0.0733839 -0.092091195 0.06328353 0.04744868 0.049566466 -0.024844756
0.06495275 0.036371633 -0.04895961 -0.07962095 -0.041967303 0.1091768 0.044256024 0.022184215
0.0676239 0.073417336 -0.00950177 -0.016332997 0.06971871 0.025049957 0.06258388 -0.012549123
-0.07338663 -0.01761575 0.016876847 0.007898489 -0.027572162 -0.02870306 -0.07336256 -0.03194864
-0.09157957 -0.051362447 0.043128204 -0.0050901016 -0.1141515 0.007856222 -0.0042071454 -0.04198186
-0.07478919 0.05370228 -0.0186347 0.011339262 0.08614577 0.04819172 0.09499913 0.03035076
0.06977798 0.031442698 0.08224864 -0.11208186 0.081836514 -0.054697063 -0.075443886 -0.027618703
0.08301328 0.03742516 -0.07558184 -0.0845554 0.044745848 0.098798156 -0.03007449 -0.0743141
0.07008975 -0.11100466 -0.10419874 0.055918552 0.06946907 -0.08812237 -0.106122844 -0.0029645755
0.046143357 0.0017862861 -0.047810946 -0.07408583 -0.061596267 0.14423276 0.07789247 -0.020939605
0.030458286 -0.023439312 0.026382476 0.052538708 0.09456105 0.036693744 -0.04290844 0.0549859
-0.08612894 -0.01411438 0.058862068 0.01419801 0.059748948 -0.078713395 0.07172848 0.009917654
0.056034256 0.09602064 0.06588723 0.061228313 0.02274243 0.08936627 0.12934962 0.034399167
0.021456998 -0.09355644 0.023122314 0.06411372 -0.031167371 0.040800128 0.034429953 -0.010005735
0.03458354 0.031798165 -0.01596608 -0.09727928 -0.028322704 0.021021273 0.013680756 0.05737645
0.08442609 0.057313174 -0.041778408 0.03329399 0.00069253147 0.031460118 -0.010544642 -0.052771028
-0.0809583 -0.080463775 0.029565636 0.03278147 0.0652777 -0.016356952 -0.052531287 -0.122566506
0.03806012 0.07489902 0.11539793 0.06791851 0.12780127 -0.024996363 0.08963221 -0.017502673
0.029149458 -0.085624635 0.07816805 0.085075736 -0.08552612 -0.051976506 0.016839243 -0.100624815
-0.022764377 -0.021304585 -0.019929437 -0.024119923 -0.08988803 -0.035009798 -0.003006672 -0.09773653
-0.11275076 -0.05502075 0.026680697 0.044428557 0.017925482 -0.0180391 -0.004472796 -0.07196342
00000000: ba5d a4bd 06fe 82bd c3c1 7ebc ee55 993d
00000010: 3627 0f3d c852 863d dd18 4e3d 291f a7bd
00000020: 0893 b23d 5bb8 a2bd cc42 5c3d 5b76 54bd
00000030: 2444 623d 972b 533d 3b36 b3bd 2b1c 97bd
00000040: 8ef4 a33d 70fe 713d 9502 af3d da5b 87bb
00000050: 082a 563d ee6d a1bd 51ac ae3d 1039 863d
00000060: fc46 c03d 67bd 98b8 bc85 c2bc d9fb bbbc
00000070: 4364 903c b89b c23c 6426 41ba 5bd2 a5bc
00000080: d0a6 d2bd 466d a7bd e2ab 683b 6ad0 923d
00000090: 774b 963c 7cdb 1a3e f2bf f33d 0d41 29bd
000000a0: bf80 8fbd 54d1 56bd acc7 8bbc 314d d53d
000000b0: 6956 c13d b8df a7bc cbe6 9e3c 9911 89bd
000000c0: f48b 85bd f4e5 603d 55fe d13d 3d0f 2bbd
000000d0: 6072 7ebc 0620 a5bd 6d41 d03d 801c 5b3d
000000e0: 4f28 fb3d ee9c f93b 0bfc ce3d d7c7 0ebc
000000f0: 6d00 d63c 3446 883c 542f 9bbd 8a32 87bd
00000100: 94b8 d1bd 0450 653c 0f82 df3b 28c8 0f3d
00000110: dc1f 913d 0ec5 cf3d a561 c8bb f09c a33d
00000120: f06e 793c a014 c63c 602a 143d 4140 a93d
00000130: f814 1abd 1213 d83d b86c 99bd e4be d2ba
00000140: a457 143d f4a9 5f3d 5c5f 6fbd 28c1 2bbd
00000150: efe8 163d 9c1f 993d c6f8 c63d f806 903d
00000160: c98f 553c 4e45 da3d 4c4a 963d 4f9a bcbd
00000170: cc9a 813d 8c59 423d 3506 4b3d 3b87 cbbc
00000180: f305 853d 6cfa 143d df89 48bd 4f10 a3bd
00000190: e8e5 2bbd 1698 df3d ce45 353d acbb b53c
000001a0: 667e 8a3d d45b 963d 50ad 1bbc c7cc 85bc
000001b0: afc8 8e3d 9135 cd3c fa2b 803d d69a 4dbc
000001c0: bb4b 96bd e84e 90bc 5041 8a3c aa68 013c
000001d0: 04df e1bc ae22 ebbc 1c3f 96bd 94dc 02bd
000001e0: 128e bbbd 6e61 52bd 33a7 303d deca a6bb
000001f0: 43c8 e9bd 62b7 003c 18dc 89bb 2cf5 2bbd
00000200: 132b 99bd ecf6 5b3d cca7 98bc 50c8 393c
00000210: 326d b03d ae64 453d e78e c23d 28a2 f83c
00000220: c2e7 8e3d 0fca 003d fa71 a83d 2d8b e5bd
00000230: e799 a73d 070a 60bd 5382 9abd 9e40 e2bc
00000240: de02 aa3d 204b 193d a7ca 9abd 622b adbd
00000250: 6c47 373d b056 ca3d c75e f6bc fe31 98bd
00000260: 378b 8f3d 6956 e3bd 2666 d5bd da0a 653d
00000270: cd45 8e3d 8079 b4bd ef56 d9bd 5349 42bb
00000280: d100 3d3d d121 ea3a 69d5 43bd 50ba 97bd
00000290: 5e4c 7cbd c1b1 133e 1686 9f3d 8989 abbc
000002a0: a883 f93c cd03 c0bc 1020 d83c d432 573d
000002b0: 39a9 c13d 2e4c 163d c3c0 2fbd e538 613d
000002c0: 5f64 b0bd 0040 67bc 5a19 713d c59e 683c
000002d0: 50bb 743d 7d34 a1bd 62e6 923d a87d 223c
000002e0: 2d84 653d 78a6 c43d e2ef 863d 8aca 7a3d
000002f0: 554e ba3c aa05 b73d 3a74 043e 24e6 0c3d
00000300: 96c6 af3c 859a bfbd 026b bd3c 0e4e 833d
00000310: b752 ffbc 091e 273d 6c06 0d3d 18ef 23bc
00000320: 78a7 0d3d cb3e 023d 4ccb 82bc 5c3a c7bd
00000330: 0405 e8bc ce34 ac3c 4025 603c 9203 6b3d
00000340: 96e7 ac3d 38c1 6a3d d61f 2bbd 475f 083d
00000350: 008b 353a 53dc 003d 6fc3 2cbc 6f26 58bd
00000360: 77cd a5bd 31ca a4bd a233 f23c dd45 063d
00000370: 51b0 853d 04ff 85bc 0c2b 57bd 2604 fbbd
00000380: eee4 1b3d a864 993d c055 ec3d dc18 8b3d
00000390: 56de 023e 2cc5 ccbc 1891 b73d c461 8fbc
000003a0: d8ca ee3c f85b afbd 9216 a03d 303c ae3d
000003b0: 5228 afbd 51e5 54bd 74f2 893c 6214 cebd
000003c0: 5c7c babc f486 aebc 0f43 a3bc 2597 c5bc
000003d0: 3717 b8bd 6f66 0fbd 960b 45bb 172a c8bd
000003e0: dfe9 e6bd 705d 61bd 7a91 da3c b8fa 353d
000003f0: 76d8 923c bcc6 93bc 8890 92bb 8f61 93bd

sequential/conv2d/Relu;sequential/conv2d/BiasAdd;sequential/conv2d_2/Conv2D;sequential/conv2d/Conv2D;conv2d/bias f4 [32, 3, 3, 3]
-0.00052158226 0.00039342223 -4.4035798e-05 0.000162309 -0.00053680496 -0.00025665312 -0.0003830093 0.00051231886
0.00037753858 -0.00025499807 -0.00044861095 -0.00036888424 -0.00033473474 0.0003016749 -0.00014834273 3.73921e-05
-0.0004453148 -0.0003733834 -5.58916e-05 -0.00013803615 -0.0001390536 -0.00043232937 0.00037291076 0.0001772021
-0.00048478917 0.00023351208 -9.023676e-07 -0.0002025936 0.00034173616 0.00021667163 0.00016618798 0.0003779558
-4.015063e-05 0.00029042255 0.0004532363 -0.0005165719 0.0004963948 0.0004723582 -0.00035007522 0.0003723497
-0.00012395372 -0.0005334162 0.00014834249 -0.00030777344 0.00038268146 0.0005272876 0.00046482414 6.003763e-05
0.00059148937 0.0002630356 -5.3886382e-05 0.0004363414 0.00035295967 -0.00017018378 -8.7926855e-05 -9.742547e-05
0.0004814636 0.00026542117 0.00019411324 -0.0005525406 0.0004237188 -0.0005387604 -0.0004643681 0.00015895988
-0.0001577816 -0.00021775304 -0.00022519399 0.00032004915 -0.00030143777 0.00052748685 -0.00030769646 6.696407e-05
-0.0001396184 -0.00024916028 -0.00033886242 -0.00036021962 0.00037912212 -0.00057406584 0.0004913784 0.0001256535
0.00023900357 0.00015333814 9.070316e-05 -0.00022329619 3.559296e-05 -0.00048724926 0.00017793104 0.00025598932
0.00027749466 0.00010977842 -0.00011452113 0.00056324474 0.0006415017 -5.2390595e-05 -0.00014810654 0.00012843174
-0.00034428196 0.00024538222 -0.00013602279 0.00038399902 0.0006340771 -0.00027212754 5.2759126e-05 0.00033569604
-0.0002862447 3.126243e-05 6.9997564e-05 0.00028200008 7.5997654e-05 0.00014272651 -0.00012552293 -0.00023893383
0.00011593894 0.00032531196 -0.0004149476 -1.2937334e-05 0.00045520993 -0.0003221103 0.00018134972 1.1991563e-05
-0.00025920803 0.0003697326 -0.0005201348 8.9401045e-05 0.00038180346 -5.287907e-05 -0.00033011424 -0.00042140938
0.00027272946 0.00031373906 -0.00042676923 -0.00028803412 -0.00054366427 -0.000325779 -0.00023689336 -4.0249084e-05
-0.0003596937 0.00052325794 0.0003005621 0.00025351907 0.00030555253 0.00024949867 0.0005571697 0.00027426786
-0.00029408454 0.00035740272 -0.00035716832 0.00026264798 -0.0004933032 0.00044447827 -7.4126224e-06 -0.00030177613
0.00021848107 -0.00059546944 -0.00051112985 0.00018501775 -0.0004420399 -0.00022437691 -4.6749537e-05 0.000410912
0.00027090954 0.00050419563 -0.0001928829 0.00011838481 1.3312463e-05 -0.00052119914 0.0006166085 -0.00017402884
-0.0002682237 0.00050698704 -0.0003490431 -9.687986e-06 -0.00036209763 -2.2785163e-05 -0.000446462 -0.00016815
-0.00034390952 0.00021998437 8.8518056e-05 0.0006398655 0.000212771 4.084418e-05 -0.00018511478 0.00044173416
0.00032335302 -0.00025884865 -9.830818e-05 0.00026946588 0.0003309724 -0.00055121403 -0.0003502593 0.00015399513
-0.00048692615 -0.000520915 -0.0001747266 -0.00050978904 0.0004126167 8.0341844e-05 0.00019998667 -0.00051993644
0.0002991461 1.1937348e-05 -0.0005031228 0.00031075848 -0.00048641744 -0.0005197902 -0.00014660078 -0.00012364502
0.00043892825 -0.00037741606 -0.00016957478 0.00019647105 -7.1488954e-05 0.0004345392 -5.755494e-05 4.5556313e-05
-3.3374235e-05 0.00025968923 0.00013984808 0.00050095614 0.00057586684 0.0003134254 0.00012622395 2.5593905e-05
0.0007294799 0.00036271833 -0.00018483105 0.00062819 -9.082225e-05 0.00014732407 0.0003817451 0.0004476794
-3.54839e-05 0.000626387 -0.00024555213 0.0002497118 0.00010489841 0.00048650242 0.0004994359 5.498723e-05
0.0005647586 0.00046714977 0.0005894 0.00042387805 0.00015921144 -0.0001497206 8.1681246e-05 -0.00030119438
-0.0002935515 0.00013378671 0.00026413944 -0.0005961195 0.00022099372 0.0004812806 0.00021336072 -0.00026880894
00000000: cbba 08ba 3d44 ce39 14b3 38b8 7e31 2a39
00000010: 5fb8 0cba 668f 86b9 a3ce c8b9 234d 063a
00000020: 5ff0 c539 43b1 85b9 8b33 ebb9 ce66 c1b9
00000030: 567f afb9 1f2a 9e39 738c 1bb9 76d5 1c38
00000040: 2479 e9b9 acc2 c3b9 266d 6ab8 ccbd 10b9
00000050: ebce 11b9 44aa e2b9 3c83 c339 54cf 3939
00000060: 4d2b feb9 ecda 7439 3b3a 72b5 4e6f 54b9
00000070: 0d2b b339 5932 6339 bf42 2e39 5e28 c639
00000080: 6967 28b8 db43 9839 59a0 ed39 8e6a 07ba
00000090: 7e20 023a d8a6 f739 4d8a b7b9 ee37 c339
000000a0: 93f9 01b9 f5d4 0bba 628c 1b39 a75c a1b9
000000b0: a3a2 c839 ac39 0a3a a4b3 f339 ead0 7b38
000000c0: 2e0e 1b3a 0ae8 8939 1004 62b8 c0c4 e439
000000d0: 720d b939 5c73 32b9 5f65 b8b8 e750 ccb8
000000e0: f36c fc39 3a28 8b39 e08a 4b39 5fd8 10ba
000000f0: 9326 de39 993b 0dba 6e76 f3b9 78ae 2639
00000100: 2d72 25b9 a354 64b9 0d22 6cb9 45cc a739
00000110: 4b0a 9eb9 0b47 0a3a 5252 a1b9 106f 8c38
00000120: 8766 12b9 baa1 82b9 58a9 b1b9 dcdb bcb9
00000130: e9c4 c639 e87c 16ba d9cf 003a dbc1 0339
00000140: 089d 7a39 65c9 2039 e337 be38 9d24 6ab9
00000150: a649 1538 7d75 ffb9 0093 3a39 4e36 8639
00000160: b47c 9139 d738 e638 102b f0b8 b7a6 133a
00000170: 732a 283a f9bd 5bb8 0c4d 1bb9 a2ab 0639
00000180: be80 b4b9 a5a6 8039 57a1 0eb9 7a53 c939
00000190: 3238 263a 57ac 8eb9 ae49 5d38 5c00 b039
000001a0: 1d13 96b9 c71f 0338 a8cb 9238 69d9 9339
000001b0: ee60 9f38 dba8 1539 ce9e 03b9 508a 7ab9
000001c0: 3f24 f338 a28e aa39 538d d9b9 6d0d 59b7
000001d0: 3ea9 ee39 eae0 a8b9 b228 3e39 5f2f 4937
000001e0: 50e6 87b9 abd8 c139 a859 08ba d27c bb38
000001f0: cb2c c839 78ca 5db8 2f13 adb9 9cf0 dcb9
00000200: 21fd 8e39 587d a439 ffbf dfb9 4903 97b9
00000210: b184 0eba 51cd aab9 9466 78b9 20d1 28b8
00000220: 4595 bcb9 3f2b 093a c394 9d39 c1ea 8439
00000230: 9132 a039 25cf 8239 070f 123a 9ccb 8f39
00000240: 5c2f 9ab9 c861 bb39 5242 bbb9 04b4 8939
00000250: 0451 01ba dd08 e939 f1b9 f8b6 b537 9eb9
00000260: 1118 6539 4719 1cba 58fd 05ba 5301 4239
00000270: 97c1 e7b9 b846 6bb9 ef14 44b8 ad6f d739
00000280: dd08 8e39 ff2b 043a 9c40 4ab9 5c45 f838
00000290: 9858 5f37 15a1 08ba e5a3 213a 837b 36b9
000002a0: 60a0 8cb9 53e7 043a c6ff b6b9 9589 22b7
000002b0: ecd7 bdb9 c422 bfb7 1e13 eab9 6c51 30b9
000002c0: c14e b4b9 9bab 6639 c5a2 b938 a6bc 273a
000002d0: 481b 5f39 1b50 2b38 5f1b 42b9 8e98 e739
000002e0: b587 a939 14b6 87b9 cd2a ceb8 1947 8d39
000002f0: 5d86 ad39 597f 10ba 02a3 b7b9 c179 2139
00000300: 1f4a ffb9 048e 08ba d136 37b9 5da3 05ba
00000310: 7a54 d839 337d a838 83b3 5139 584c 08ba
00000320: b6d6 9c39 8546 4837 00e4 03ba 4ced a239
00000330: d805 ffb9 8842 08ba d9b8 19b9 b5a6 01b9
00000340: f41f e639 eddf c5b9 e2cf 31b9 cc03 4e39
00000350: 57ec 95b8 ddd2 e339 2567 71b8 b813 3f38
00000360: 50fb 0bb8 e626 8839 2fa4 1239 9952 033a
00000370: c5f5 163a 3f53 a439 fc5a 0439 7eb2 d637
00000380: 913a 3f3a 3b2b be39 35cf 41b9 1ead 243a
00000390: d377 beb8 017b 1a39 f624 c839 83b6 ea39
000003a0: 8cd4 14b8 1f34 243a 73bd 80b9 c0eb 8239
000003b0: e8fc db38 4011 ff39 93ec 023a 17a2 6638
000003c0: 4f0c 143a c8eb f439 f781 1a3a f33b de39
000003d0: fff1 2639 51fe 1cb9 494c ab38 a0e9 9db9
000003e0: d1e7 99b9 1949 0c39 327c 8a39 e744 1cba
000003f0: 8dba 6739 6354 fc39 95b9 5f39 edee 8cb9
